src/Models_Arousal/EnglishSER_arousal.pth (torch, 451601 bytes, 22 tensors)

layer_convFeatExtractor.0.weight f4 [32, 3, 3, 3]
0	0x3e863144	0.26209462
1	0x3eaae04b	0.33374247
2	0x3dc7d884	0.09758094
3	0xbd91ae2c	-0.07113299
4	0x3e78037b	0.24220078
5	0xbdaf0c40	-0.085472584
6	0x3d9b4b4a	0.075827196
7	0xbdbe05a0	-0.09278417
8	0xbd25c608	-0.04047206
9	0x3ddbb7ef	0.10728442
10	0xbdf05467	-0.117348485
11	0xbd82dbdb	-0.0638959
12	0xbc53e60f	-0.012933268
13	0xbd1f590c	-0.03890328
14	0xbe34e049	-0.17663683
15	0x3df485f9	0.11939616
16	0xbe62e1b6	-0.22156414
17	0xbe6c2a30	-0.23062968
18	0x3ea37bf9	0.3193052
19	0x3df16629	0.11787064
20	0x3dbdd275	0.09268657
21	0x3ecad1b6	0.39613122
22	0x3e88fb7f	0.26754376
23	0x3e5557f1	0.20834328
24	0x3ee5e40b	0.44900545
25	0x3e9c012d	0.30469647
26	0x3eb75321	0.3580561
27	0x3e1dc4f5	0.15407164
28	0xbe1f5134	-0.1555832
29	0xbc4b1c95	-0.012396951
30	0x3d2e2259	0.042513225
31	0xbe7f9cde	-0.24962184
32	0x3db3edc9	0.08785588
33	0x3dc6e7e5	0.09712199
34	0x3e63a65e	0.22231433
35	0x3eae82aa	0.34084064
36	0xbf1a10a5	-0.6018165
37	0xbf174d6f	-0.5910253
38	0xbe3d0858	-0.18460214
39	0xbed58745	-0.41704765
40	0xbf22b4fb	-0.63557404
41	0xbe9f2c2f	-0.31088397
42	0xbe17bfc9	-0.14819254
43	0x3d06b5a4	0.03288807
44	0x3e0e7ba3	0.13914351
45	0x3d8c93f0	0.06864154
46	0x3e81522c	0.25258005
47	0x3cc3e3fa	0.023912419
48	0x3d8d21f4	0.06891242
49	0x3e1d0f51	0.15337874
50	0x3c8601f2	0.01635835
51	0x3c60d7a6	0.01372329
52	0x3df41340	0.11917734
53	0xbbce2b21	-0.0062917625
54	0xbd7aad51	-0.061200444
55	0x3e66f2d9	0.22553577
56	0x3e360e0c	0.17778796
57	0xbd4627e0	-0.04837787
58	0x3e55789c	0.2084679
59	0x3e7bdcc0	0.24595928
60	0xbde4a90a	-0.11165054
61	0xbe52cf6d	-0.20586939
62	0xbe4af983	-0.19821744
63	0x3e784ca2	0.24247983
64	0xbde04848	-0.109512866
65	0xbe7a35f9	-0.24434651
66	0xbd423e5d	-0.047422756
67	0x3d0c10dd	0.03419577
68	0xbd8775e2	-0.06614281
69	0x3e4da061	0.20080711
70	0x3c84e2fc	0.016221516
71	0xbecd3c2f	-0.4008498
72	0x3ea8195f	0.32831857
73	0x3e0d5d6b	0.13805167
74	0xbe7a06f9	-0.24416722
75	0xbcc8d55b	-0.024515798
76	0xbe083fd0	-0.13305593
77	0xbc92e36a	-0.017930705
78	0x3d97ddc3	0.074153446
79	0x3d495ea4	0.049162522
80	0x3d6e8dfc	0.058240876
81	0x3e02c904	0.12771994
82	0xbe58fbc6	-0.21189794
83	0xbde0db78	-0.1097936
84	0x3e30168f	0.17196105
85	0xbe29cc3f	-0.1658182
86	0x3e776d46	0.24162778
87	0xbdc4a3e8	-0.09601575
88	0x3de61bf3	0.112358
89	0x3f01a8bc	0.50648093
90	0x3d869066	0.065705106
91	0xbe13f8fb	-0.14450447
92	0xbe976788	-0.29571176
93	0xbe53970f	-0.20663093
94	0xbeebea8f	-0.46077392
95	0x3cfe9d99	0.031081008
96	0xbe897b44	-0.26851857
97	0xbe8b2547	-0.27176878
98	0xbd8f9f2b	-0.07012781
99	0x3da75a7a	0.08171554
100	0xbd987652	-0.07444443
101	0x3ccbd4ef	0.024881808
102	0xbc441c6f	-0.01196967
103	0xbdb1f74b	-0.086897455
104	0xbd61b8da	-0.05510793
105	0x3e73821b	0.237801
106	0x3cfe1b92	0.031019006
107	0xbe20573f	-0.15658282
108	0xbe37663d	-0.17910095
109	0xbd902b36	-0.07039492
110	0xbd1b2185	-0.037873764
111	0x3db28cd0	0.08718264
112	0x3da3ca1d	0.079975344
113	0x3e512a41	0.20426275
114	0xbe60233b	-0.2188844
115	0x3dd724e6	0.10505085
116	0x3ddaee4a	0.10689981
117	0xbe9bbccf	-0.30417487
118	0x3dfd3f32	0.12365569
119	0x3e1eda6c	0.15513009
120	0xbe966373	-0.2937275
121	0x3e046891	0.12930514
122	0x3d71b2e5	0.059008498
123	0xbef691f0	-0.48158216
124	0x3e2779a2	0.16354993
125	0x3ecf53d8	0.40493655
126	0xbdc42ad5	-0.09578482
127	0x3da988de	0.082780585
128	0x3e3acd4f	0.18242382
129	0x3e233876	0.15939507
130	0x3d8f09de	0.06984304
131	0xbe241d43	-0.16026787
132	0xbd4ef3f9	-0.05052564
133	0x3d8b29f3	0.067951106
134	0x3d86ea2c	0.065876335
135	0x3e936ad7	0.2879245
136	0x3eaa47cf	0.3325791
137	0xbd897917	-0.06712549
138	0x3e65cedf	0.22442196
139	0x3bfa8aab	0.007645925
140	0x3c435dc8	0.011924215
141	0xbe1b37a3	-0.15157942
142	0xbe38bcb8	-0.1804074
143	0xbd4c9c77	-0.049953904
144	0xbe90b941	-0.28266338
145	0xbe936cab	-0.28793845
146	0xbcc903f0	-0.02453801
147	0xbe099e48	-0.13439286
148	0xbe966ea9	-0.29381302
149	0xbecdeced	-0.40219823
150	0xbe58cc08	-0.21171582
151	0xbf19f9f3	-0.6014702
152	0xbf01d5a4	-0.50716615
153	0x3e526a9a	0.20548478
154	0x3e46926d	0.19391795
155	0x3e40e9e7	0.18839227
156	0x3e139f07	0.14416133
157	0xbcfe3d9e	-0.03103524
158	0x3eaead3a	0.34116536
159	0xbcd0e828	-0.025501326
160	0xbdd220e4	-0.1026018
161	0x3d588a71	0.052866403
162	0x3df3909b	0.11892816
163	0xbe62a5a7	-0.22133504
164	0x3c7abe92	0.015304225
165	0xbd88f4bb	-0.06687304
166	0xbdbef009	-0.09323127
167	0x3ea63e99	0.32469633
168	0x3c928774	0.017886855
169	0xbec1cbf2	-0.3785091
170	0xbe45bd94	-0.193106
171	0xbda8e787	-0.08247285
172	0x3d1af301	0.037829403
173	0x3eba6f40	0.36413002
174	0x3e2c9735	0.16854556
175	0x3b989701	0.004656673
176	0x3e68418c	0.22681254
177	0x3ccd72a5	0.02507908
178	0xbe1599f6	-0.14609513
179	0xbd922002	-0.07135011
180	0x3d9cef20	0.07662797
181	0x3e289fd5	0.16467221
182	0x3d385a81	0.045008186
183	0x3e407bab	0.18797176
184	0x3d728967	0.05921307
185	0xbe614c8c	-0.22001857
186	0x3e6731a6	0.22577533
187	0x3ef39254	0.47572577
188	0x3eac91f9	0.33705118
189	0x3ea5fca8	0.32419324
190	0x3dc79baf	0.09746491
191	0x3d8861a1	0.06659246
192	0x3d562275	0.052278955
193	0x3cf4913b	0.029854408
194	0xbe5bb7a3	-0.2145677
195	0xbea615ba	-0.3243845
196	0xbccf4ebd	-0.0253061
197	0x3d950430	0.07276189
198	0x3e9b85a8	0.3037541
199	0x3eb8dc0d	0.36105385
200	0xbe5945bb	-0.21218006
201	0xbd29dac4	-0.041468397
202	0xbe394cf3	-0.1809576
203	0x3d418a08	0.047250777
204	0xbed3da92	-0.41377693
205	0xbe744e7e	-0.23858067
206	0x3e7c37c2	0.24630645
207	0x3d9a153d	0.07523582
208	0xbd94d185	-0.07266525
209	0x3e8a4afc	0.27010334
210	0xbcf46ba2	-0.02983648
211	0xbd71e7c6	-0.059058927
212	0xbd764058	-0.060119957
213	0x3d91e611	0.0712396
214	0x3e0b45bc	0.1360082
215	0xbe442839	-0.19155969
216	0x3e3d4456	0.184831
217	0xbe80cbf9	-0.2515562
218	0xbd3b769b	-0.045767408
219	0x3dfb0896	0.12257497
220	0x3dbaf495	0.091286816
221	0x3dca7ae4	0.09886721
222	0xbe2ad049	-0.16681017
223	0x3d08fcb7	0.033444133
224	0x3e9285fb	0.28617844
225	0x3d5bc062	0.053650267
226	0xbdf60ccf	-0.12014162
227	0x3d49c87e	0.04926347
228	0xbe5caae8	-0.2154957
229	0xbe1a09f6	-0.15042862
230	0x3e148b63	0.14506297
231	0xbee25e27	-0.44212458
232	0xbe268390	-0.16261125
233	0x3e7e5ccd	0.24840088
234	0xbeb5eaef	-0.35530803
235	0xbe96701f	-0.29382417
236	0x3e8bc470	0.27298307
237	0x3d89c945	0.06727842
238	0x3e196f34	0.14983827
239	0x3e8ac69f	0.2710466
240	0x3d41765d	0.04723202
241	0xbd1662d5	-0.036715347
242	0xbc38aacc	-0.01127119
243	0x3b9ddeca	0.0048178183
244	0x3d99ea49	0.075153895
245	0xbe2784fa	-0.1635932
246	0x3e50673a	0.20351878
247	0x3dbe972f	0.0930618
248	0xbe02ac28	-0.12760985
249	0x3d71e345	0.05905463
250	0xbe25bcd5	-0.16185315
251	0xbe75d8d4	-0.24008495
252	0x3e81e7ea	0.2537225
253	0x3e347ab7	0.17624937
254	0x3b972aa9	0.00461324
255	0x3e8dfda6	0.2773258

layer_convFeatExtractor.0.bias f4 [32]
0	0xbd98c216	-0.07458894
1	0xbb9fe0f9	-0.0048791138
2	0xbe1450b1	-0.14483906
3	0x3e2b66bd	0.1673841
4	0x3e9f4e67	0.31114504
5	0x3d16b46a	0.03679315
6	0xbd8c3b5c	-0.068472594
7	0x3e5312cb	0.20612638
8	0xbe400da3	-0.18755202
9	0x3eb5a481	0.3547707
10	0xbe4e0b6b	-0.20121543
11	0x3d1c1e90	0.038115084
12	0xbe6edaa5	-0.23325594
13	0x3e8b792a	0.27240878
14	0xbdc40605	-0.09571461
15	0xbe6f2cd1	-0.2335694
16	0x3df7651c	0.12079832
17	0xbc86e59a	-0.016466904
18	0xbe36ba7d	-0.17844577
19	0x3e655b49	0.22398104
20	0x3de9b492	0.11411394
21	0x3e072e47	0.13201247
22	0x3d05c55a	0.032658912
23	0x3dcc16a4	0.09965256
24	0x3d39947a	0.045307614
25	0x3cf47ed3	0.02984563
26	0xbc057520	-0.008145601
27	0xbe9facc2	-0.3118649
28	0x3e42a1da	0.19007054
29	0xbcc57353	-0.024102842
30	0xbe17e046	-0.14831647
31	0x3e4dede7	0.20110284

layer_convFeatExtractor.1.weight f4 [32]
0	0x3f4feb56	0.8121847
1	0x3f225ad1	0.63419825
2	0x3f6a801f	0.9160175
3	0x3f2df1d4	0.67947125
4	0x3f99be29	1.2011157
5	0x3f2a5177	0.66530555
6	0x3f666dbd	0.900112
7	0x3f99263a	1.1964791
8	0x3f88dedf	1.0693015
9	0x3f600b64	0.8751738
10	0x3f196876	0.5992502
11	0x3f81e4df	1.0147971
12	0x3f5a4ba9	0.852717
13	0x3f8b196e	1.0867136
14	0x3f60a99f	0.8775882
15	0x3f7ed7c1	0.99547964
16	0x3f4ef8a0	0.8084812
17	0x3f8198c0	1.0124741
18	0x3f1d725e	0.61502635
19	0x3f5e6dcf	0.86886305
20	0x3f8cd3d8	1.100215
21	0x3f2b6a0c	0.6695869
22	0x3f5bf8c7	0.8592648
23	0x3f82314c	1.0171294
24	0x3f8e7c4e	1.1131685
25	0x3f517e10	0.8183298
26	0x3f6483d9	0.89263684
27	0x3f6e37eb	0.93054074
28	0x3f276382	0.6538621
29	0x3f647e4f	0.8925523
30	0x3f55036a	0.83208334
31	0x3f8bc6bd	1.0920025

layer_convFeatExtractor.1.bias f4 [32]
0	0xbeca3f8d	-0.3950161
1	0xbeed41be	-0.4633922
2	0xbef739b6	-0.48286217
3	0xbf1170e4	-0.5681288
4	0xbed3c059	-0.41357687
5	0xbef3519e	-0.47523206
6	0xbef986c8	-0.48735642
7	0xbe3351f8	-0.17511737
8	0xbe45f19a	-0.19330445
9	0xbea3bbb9	-0.3197916
10	0xbf013aec	-0.5048053
11	0xbf3a622e	-0.7280606
12	0xbe6b9667	-0.23006593
13	0xbe92b680	-0.2865486
14	0xbf0f4dfd	-0.55978376
15	0xbe3e1f81	-0.18566705
16	0xbf5195b4	-0.81869054
17	0xbe9ad858	-0.30243182
18	0xbee9c5a0	-0.45658588
19	0xbe65fabe	-0.22458932
20	0xbeb755dc	-0.35807693
21	0xbf0aaecf	-0.54172987
22	0xbf083f87	-0.53221935
23	0xbe9b95b5	-0.30387655
24	0x3d55a337	0.052157607
25	0xbf15852e	-0.5840634
26	0xbdff0d50	-0.12453711
27	0xbee5cff4	-0.44885218
28	0xbec7fb01	-0.39058688
29	0xbeb834f9	-0.35977915
30	0xbeda9881	-0.42694476
31	0x3e14057d	0.14455219

layer_convFeatExtractor.1.running_mean f4 [32]
0	0x3f9fe2f1	1.2491132
1	0x3d455497	0.048176374
2	0xbb84ed2e	-0.0040565943
3	0x3e1e3a8b	0.1545202
4	0x3ef27222	0.473527
5	0x3e076638	0.13222587
6	0x3eb7c165	0.35889736
7	0x3e8e7b1e	0.27828306
8	0xbd7a6ae5	-0.0611371
9	0x3fb4ba3a	1.4119332
10	0xbed1d3e3	-0.4098197
11	0x3e419b1a	0.18906823
12	0xbe25b4d2	-0.16182259
13	0x3eaaff25	0.33397785
14	0x3a51933d	0.00079946575
15	0xbe0350be	-0.1282377
16	0xbe00fef9	-0.12597264
17	0x3da244f7	0.0792331
18	0xbea087b6	-0.3135354
19	0x3f91dc1f	1.1395301
20	0x3eab6fb1	0.3348365
21	0x3e071c7d	0.13194461
22	0xbe7d4172	-0.24731997
23	0x3e30b391	0.17255999
24	0x3e26f306	0.16303644
25	0x3bafaa20	0.0053608567
26	0x3ce7ce0d	0.028296495
27	0x3e0854bb	0.13313572
28	0xbdf77b7c	-0.120841
29	0x3d5a3d59	0.053281162
30	0xbc5ff6c2	-0.0136696715
31	0x3e865d62	0.2624312

layer_convFeatExtractor.1.running_var f4 [32]
0	0x3e28d7d0	0.16488576
1	0x3dba810b	0.09106644
2	0x3bb6cbf5	0.005578513
3	0x3c9a11ad	0.018807257
4	0x3c7ac9dc	0.015306916
5	0x3dce2b1c	0.10066816
6	0x3cacd445	0.021097312
7	0x3b974561	0.004616425
8	0x3c0cf082	0.008602263
9	0x3ddad7b5	0.10685674
10	0x3dc7818d	0.09741507
11	0x3b9dc75a	0.0048150243
12	0x3c0045e3	0.007829162
13	0x3b774c28	0.0037734602
14	0x3b5bb099	0.0033522008
15	0x3cb92199	0.022599028
16	0x3c9f2163	0.0194251
17	0x3be986b4	0.0071266536
18	0x3db4ff2c	0.08837733
19	0x3da1d0f9	0.079011865
20	0x3c13ff4c	0.0090330355
21	0x3bad65ff	0.0052917
22	0x3c8428c7	0.016132725
23	0x3b6db74a	0.003627258
24	0x3b80e013	0.0039329617
25	0x3c23baf2	0.009993302
26	0x3be5d9b1	0.007014476
27	0x3ca619a4	0.020275898
28	0x3cc88509	0.024477499
29	0x3be50c05	0.006989958
30	0x3c3f972a	0.011693755
31	0x3bc1f51e	0.005919113

layer_convFeatExtractor.4.weight f4 [64, 32, 3, 3]
0	0xbdb65fbb	-0.08904978
1	0xbdb81374	-0.089880854
2	0x3e6c2a52	0.23063019
3	0xbd5f8f9a	-0.05458031
4	0x3e092a1a	0.13394967
5	0x3e4e6790	0.20156693
6	0xbc81f561	-0.015864076
7	0xbcdec68d	-0.027194286
8	0x3eace68a	0.33769637
9	0xbe54bc65	-0.20774992
10	0xbea54cc5	-0.32285133
11	0xbdf8411b	-0.12121793
12	0xbd36c94c	-0.044625565
13	0xbde176aa	-0.110089615
14	0xbba6423b	-0.0050738133
15	0xbcdd5ea6	-0.027022671
16	0xbe41880a	-0.18899551
17	0xbe26141c	-0.16218609
18	0x3d24a278	0.040194005
19	0x3d84715c	0.06466934
20	0x3e78cbd0	0.24296498
21	0x3e8de2a9	0.2771199
22	0x3d3283fc	0.0435829
23	0x3e777bc7	0.24168311
24	0x3e9ba9d5	0.3040301
25	0xbd3848ec	-0.04499142
26	0x3e352043	0.17688088
27	0xbdd3a275	-0.103337206
28	0x3f0e1877	0.5550608
29	0xbdf1e245	-0.118107356
30	0x3d9a5592	0.075358525
31	0x3ee7ad4a	0.45249397
32	0xbdd565fc	-0.104198426
33	0x3873296c	5.7974292e-05
34	0x3ea41a13	0.32051143
35	0xbe02f17f	-0.12787436
36	0xbd3ff1b3	-0.04686136
37	0xbe232e82	-0.1593571
38	0xbe81413e	-0.25245088
39	0xbc89cb95	-0.016820708
40	0xbd8759e4	-0.06608942
41	0xbe5e5d7b	-0.21715347
42	0xbbf4de15	-0.0074727633
43	0x3da636b7	0.08115905
44	0xbc0649ad	-0.008196277
45	0xbed8e966	-0.4236557
46	0xbe37b479	-0.17939939
47	0xbe22f9a6	-0.15915546
48	0xbe13c6f3	-0.14431362
49	0xbe29ea43	-0.1659327
50	0xbd0ac141	-0.033875708
51	0xbdede03d	-0.11615036
52	0xbdc9054a	-0.09815462
53	0x3c08a31d	0.0083396705
54	0xbe23b36f	-0.15986417
55	0xbe0739d8	-0.1320566
56	0xbd57b266	-0.05266037
57	0x3d9fb5f0	0.07798374
58	0x3cefe762	0.029285137
59	0x3ccab0e1	0.024742546
60	0x3d9253c2	0.07144882
61	0xbdc3a325	-0.09552602
62	0xbe4ad678	-0.19808376
63	0xbd3a66dc	-0.04550825
64	0xbd664309	-0.056216273
65	0xbd2ed9b3	-0.042688083
66	0x3d87d460	0.06632304
67	0x3dca4f50	0.09878409
68	0x3d6f0012	0.058349676
69	0xbe03b545	-0.12862118
70	0x3e10467e	0.1408939
71	0x3d82948a	0.06375988
72	0x3c97b0e6	0.018516969
73	0xbe10887b	-0.14114563
74	0x3bb92e3e	0.0056512645
75	0x3cbcc21c	0.023041777
76	0x3b99783f	0.004683524
77	0xbdcd5fb9	-0.10028023
78	0xbe20c154	-0.15698749
79	0x3e3f5410	0.18684411
80	0x3dd1d948	0.10246521
81	0xbecbb072	-0.39783055
82	0xbe343236	-0.17597279
83	0x3d525fb8	0.051360816
84	0xbeb3eb89	-0.35140637
85	0xbe1dcb5e	-0.1540961
86	0x3e3289e2	0.1743541
87	0xbdbd5ac6	-0.09245829
88	0xbe264ae4	-0.16239506
89	0x3e6239e6	0.22092399
90	0xbe8130a8	-0.25232434
91	0xbe9e40fb	-0.3090895
92	0xbe43df3a	-0.19128123
93	0xbe96954d	-0.29410782
94	0xbed122b3	-0.40846786
95	0xbe896862	-0.2683745
96	0xbd4b3060	-0.04960668
97	0xbe83760e	-0.25676006
98	0xbd0719bd	-0.03298353
99	0xbdc2aaef	-0.09505259
100	0x3d75e7ac	0.060035393
101	0x3dcd5f58	0.10027951
102	0xbd57b8ca	-0.052666463
103	0x3cd4dd6a	0.025984485
104	0x3e136c88	0.1439687
105	0x3de2941e	0.11063407
106	0xbe5f24a5	-0.21791323
107	0xbd8a332b	-0.06748041
108	0x3d931bcf	0.071830384
109	0x3dc09d0a	0.09404953
110	0xbe3b3102	-0.18280414
111	0x3e152851	0.1456616
112	0x3e124bff	0.14286803
113	0x3cdfd13c	0.02732145
114	0xbdf31903	-0.11870005
115	0x3e5180bb	0.20459263
116	0x3b690852	0.0035557938
117	0xbd813ad4	-0.06310049
118	0xbc4ddb41	-0.012564481
119	0x3cd5825d	0.026063139
120	0xbdff2531	-0.124582656
121	0xbdbdbd0f	-0.09264576
122	0xbd24c927	-0.040230896
123	0x3d0406ee	0.03223317
124	0x3e15e923	0.14639716
125	0x3ce1ba73	0.027554726
126	0x3d6ad271	0.0573296
127	0x3e0315ed	0.12801333
128	0x3d8e4179	0.06946082
129	0x3d25d442	0.040485628
130	0x3ddfd68d	0.10929594
131	0xbd769aec	-0.06020634
132	0x3e4d79ef	0.20066045
133	0xbe7f8fd1	-0.24957205
134	0xbe3afbd0	-0.18260121
135	0xbe8958e9	-0.26825646
136	0xbf174c1f	-0.59100527
137	0xbd5709ef	-0.052499708
138	0xbde35a58	-0.11101216
139	0xbeae4928	-0.3404019
140	0x3c0e9b56	0.008704027
141	0xbd422ccc	-0.047406003
142	0xbd6ec023	-0.058288705
143	0x3de2b6d1	0.11070026
144	0xbe2ca524	-0.16859871
145	0xbe982218	-0.2971351
146	0xbe6b3536	-0.22969517
147	0x3de378e3	0.11107042
148	0xbe27cbc0	-0.16386318
149	0xbd306c01	-0.04307175
150	0x3e92425a	0.28566247
151	0xbd1b8196	-0.03796538
152	0x3e0195c3	0.12654786
153	0xbc4a6172	-0.012352334
154	0xbdf0f404	-0.11765292
155	0xbdd85161	-0.10562397
156	0xbd414114	-0.047181204
157	0xbe0780b7	-0.13232695
158	0xbc3e5bf2	-0.011618601
159	0xbdc63e5b	-0.09679862
160	0xbdc686fc	-0.09693715
161	0x3d731585	0.059346694
162	0xbea27854	-0.31732428
163	0xbe6aaf22	-0.2291837
164	0xbd93e2ee	-0.07221018
165	0xbe8919f0	-0.267776
166	0xbe81e9a5	-0.2537357
167	0xbe771030	-0.24127269
168	0xbe2627cd	-0.1622612
169	0xbe7cd857	-0.24691902
170	0xbc14ee83	-0.009090069
171	0xbe26f8bb	-0.1630582
172	0xbe15c8c1	-0.14627363
173	0x3dc462b3	0.09589138
174	0xbc352fcd	-0.01105876
175	0xbe42a297	-0.19007336
176	0xbdfcaaa2	-0.12337233
177	0x3d68d38a	0.056842364
178	0xbdfe3988	-0.12413317
179	0xbe8038d4	-0.25043356
180	0xbe6f3c78	-0.23362911
181	0x3d1bc020	0.03802502
182	0x3e6b9aa6	0.23008212
183	0x3cd41fd4	0.025894083
184	0xbe145b3f	-0.14487933
185	0xbe3d48ef	-0.18484853
186	0xbd12ce7a	-0.035841443
187	0xbe19a911	-0.150059
188	0xbd2ea99f	-0.042642232
189	0xbdca6ffa	-0.09884639
190	0xbd91cdba	-0.07119317
191	0xbe7a2820	-0.24429369
192	0x3bbfb242	0.0058501074
193	0xbd7e8d98	-0.062146753
194	0xbe83cec9	-0.25743702
195	0xbe074a59	-0.13211955
196	0xbd96a911	-0.073564656
197	0x3d1be0ac	0.03805606
198	0xbd82b6d8	-0.06382531
199	0x3d605e14	0.05477722
200	0xbe5b41d6	-0.21411833
201	0xbd888baa	-0.06667264
202	0x3c6c5d00	0.01442647
203	0xbe3bcc59	-0.18339671
204	0xbe973387	-0.295315
205	0x3d9ee4ae	0.07758461
206	0xbdc51abb	-0.09624239
207	0xbdb44fe9	-0.08804304
208	0xbe950d76	-0.29111832
209	0x3df7b95a	0.120959
210	0x3d7be3e9	0.06149665
211	0xbe9bfbe1	-0.30465606
212	0x3a13316f	0.0005614971
213	0x3e3be400	0.18348694
214	0xbd806414	-0.062690884
215	0xbe22f73e	-0.15914628
216	0x3d8c03d6	0.06836669
217	0xbe68ff95	-0.22753747
218	0xbda16663	-0.07880857
219	0x3d82abd4	0.0638043
220	0xbc97b70a	-0.018519897
221	0xbdcace49	-0.09902627
222	0xbe5025a1	-0.20326854
223	0x3dbc8584	0.092051536
224	0xbd8f7be4	-0.07006052
225	0xbe1da5ac	-0.1539523
226	0xbdd50fb8	-0.10403389
227	0xbd8ff2bd	-0.070287205
228	0xbd5ff615	-0.05467804
229	0xbd98d56b	-0.07462581
230	0x3d7d276a	0.061805166
231	0x3cc820c4	0.024429686
232	0xbc240c22	-0.010012658
233	0x3e0bb3a6	0.13642749
234	0xbe518aa3	-0.20463042
235	0xbd14d3a5	-0.036334652
236	0xbd8d14d9	-0.06888742
237	0xbe8c92b6	-0.27455682
238	0x3d28ddd0	0.041227162
239	0xbd5c1123	-0.05372728
240	0xbebbb5be	-0.36662096
241	0x3d24bf65	0.04022159
242	0x3e22bc3c	0.15892118
243	0xbf0f41cc	-0.55959773
244	0xbefb7617	-0.49113533
245	0x3de7d856	0.1132056
246	0xbf066205	-0.52493316
247	0xbec4090f	-0.3828816
248	0x3d2dbf77	0.042418923
249	0xbea9ffec	-0.33203065
250	0xbdad84e2	-0.08472611
251	0x3e162762	0.14663461
252	0x3d049e42	0.03237749
253	0xbdfe356f	-0.124125354
254	0xbcbbb64e	-0.022914078
255	0x3dfbd81b	0.12297078

layer_convFeatExtractor.4.bias f4 [64]
0	0x3d4846e9	0.04889575
1	0xbd6e701e	-0.058212392
2	0xbba9d626	-0.005182999
3	0xbd2ceec6	-0.0422199
4	0x3ce88517	0.028383775
5	0xbc87d316	-0.016580146
6	0xbd11a550	-0.035558045
7	0x3c97fb2a	0.018552382
8	0xbc73bc27	-0.014876402
9	0x3d9a344a	0.075295046
10	0xbd8f9e32	-0.07012595
11	0xbd70a9f3	-0.058755826
12	0xbc85b3ef	-0.01632115
13	0xbd8a6b5a	-0.06758757
14	0xbc5f5482	-0.013630988
15	0xbd0199b9	-0.031640742
16	0xbdb6db97	-0.08928602
17	0x3c88d7b7	0.016704423
18	0xbcc3c9e2	-0.023899976
19	0xbc1b07a8	-0.009462275
20	0x3cafafdf	0.021446167
21	0x3d3efb7e	0.04662656
22	0x3d2ae46d	0.04172175
23	0xbcf69e1d	-0.030104691
24	0x3cdb7d28	0.026793078
25	0xbc4095be	-0.011754451
26	0xbd173210	-0.036912978
27	0x3cdfba56	0.027310532
28	0xbd891b7d	-0.06694696
29	0xbcca370e	-0.024684455
30	0xbbff0876	-0.007782991
31	0x3d6b5f56	0.057463966
32	0x3cd75fe8	0.026290849
33	0x3d08e660	0.033422828
34	0xbc0afc6c	-0.008483034
35	0xbd0b002e	-0.03393572
36	0xbb770198	-0.003769016
37	0xbcc73e5c	-0.024321727
38	0xbd198d56	-0.037488304
39	0x3d95a60a	0.0730706
40	0xbc8cab19	-0.01717143
41	0xbd68075e	-0.05664765
42	0x3dc910d6	0.09817664
43	0xbd02ee77	-0.0319657
44	0x3d29fca5	0.041500706
45	0x3ca88801	0.020572664
46	0xbc8615b7	-0.016367776
47	0xbc3e8eee	-0.011630757
48	0xbd649396	-0.05580481
49	0xbb840f13	-0.0040301173
50	0xbc1bd248	-0.009510584
51	0x3d0c94ae	0.03432148
52	0x3cf4ae02	0.02986813
53	0x3d6cadf1	0.05778307
54	0x3c9bb603	0.019007688
55	0xbdac0f21	-0.08401323
56	0xbd4a34dc	-0.049366817
57	0x3cec87b3	0.0288733
58	0xbc274d83	-0.010211351
59	0x3ba277b4	0.0049581174
60	0xbc7ca86d	-0.015421015
61	0xbccbea49	-0.02489199
62	0x3c122e2b	0.00892214
63	0x3ccb8309	0.024842756

layer_convFeatExtractor.5.weight f4 [64]
0	0x3f51111e	0.81666744
1	0x3f69695d	0.91176397
2	0x3f628e8c	0.8849876
3	0x3f7ac6e4	0.97959733
4	0x3f5f63dd	0.87261754
5	0x3f5c208f	0.8598718
6	0x3f5cc492	0.8623744
7	0x3f6f3113	0.93434256
8	0x3f4b0fdb	0.7932107
9	0x3f6e6227	0.9311852
10	0x3f69749e	0.9119357
11	0x3f58c60a	0.84677184
12	0x3f6f23ea	0.93414176
13	0x3f725e91	0.94675547
14	0x3f379161	0.71706206
15	0x3f621ba0	0.883234
16	0x3f64d1fe	0.8938292
17	0x3f819038	1.0122137
18	0x3f5b01c6	0.8554958
19	0x3f74e019	0.95654446
20	0x3f5d8e00	0.865448
21	0x3f535adb	0.8256051
22	0x3f70eeff	0.9411468
23	0x3f6bce45	0.9211162
24	0x3f4c465e	0.7979487
25	0x3f867932	1.0505736
26	0x3f7c0cdf	0.9845714
27	0x3f71a9c2	0.94399655
28	0x3f720013	0.94531363
29	0x3f55ec83	0.83564013
30	0x3f95b2c3	1.1695179
31	0x3f3fcf63	0.7492582
32	0x3f54d804	0.83142114
33	0x3f5b6b92	0.85711014
34	0x3f53e06f	0.82764333
35	0x3f64b6d0	0.8934145
36	0x3f31071c	0.69151473
37	0x3f676844	0.9039347
38	0x3f6af66f	0.9178228
39	0x3f46bc2b	0.7763087
40	0x3f70067a	0.9375988
41	0x3f71950e	0.94368064
42	0x3f5aef95	0.85521823
43	0x3f83dcf4	1.0301805
44	0x3f67c364	0.9053252
45	0x3f75ea01	0.96060187
46	0x3f69df6d	0.91356546
47	0x3f58ab14	0.84636045
48	0x3f63da37	0.89004844
49	0x3f46e93a	0.77699625
50	0x3f68c221	0.9092122
51	0x3f55f20e	0.8357247
52	0x3f618dbf	0.8810691
53	0x3f810a90	1.0081348
54	0x3f4dd286	0.8039936
55	0x3f4e5922	0.80604756
56	0x3f631a19	0.88711697
57	0x3f7c63dc	0.98589873
58	0x3f63f022	0.8903829
59	0x3f63ba3b	0.8895604
60	0x3f56980e	0.8382577
61	0x3f732cf5	0.94990474
62	0x3f6ff2af	0.9372968
63	0x3f3e581f	0.7435321

layer_convFeatExtractor.5.bias f4 [64]
0	0xbf293535	-0.6609681
1	0xbf51ab20	-0.8190174
2	0xbf079185	-0.5295642
3	0xbf364470	-0.7119818
4	0xbf0aa22c	-0.54153705
5	0xbf4cfe3c	-0.8007543
6	0xbf33b3ce	-0.70196235
7	0xbf25b29d	-0.6472567
8	0xbf438a61	-0.76383024
9	0xbf11771b	-0.56822366
10	0xbf11070f	-0.56651396
11	0xbf39ec94	-0.72626615
12	0xbf3241ed	-0.69631845
13	0xbf050d31	-0.51973253
14	0xbef87d1a	-0.48532945
15	0xbf434515	-0.76277286
16	0xbf12c720	-0.5733509
17	0xbf36a51f	-0.71345705
18	0xbf17dea7	-0.59324116
19	0xbf235cd7	-0.6381354
20	0xbf22a46d	-0.63532144
21	0xbed90a90	-0.4239087
22	0xbf0ca738	-0.54942656
23	0xbf26a40e	-0.6509408
24	0xbef7311f	-0.48279664
25	0xbf40f031	-0.75366503
26	0xbe2bb554	-0.1676839
27	0xbf18abc8	-0.5963712
28	0xbf2d3062	-0.6765195
29	0xbf342d7b	-0.703819
30	0xbe9f43f4	-0.31106532
31	0xbf1205e5	-0.57040244
32	0xbf2c7540	-0.6736641
33	0xbf174d41	-0.59102255
34	0xbf30aaf0	-0.6901083
35	0xbf02efc7	-0.5114712
36	0xbf4ad409	-0.7922979
37	0xbf3cda11	-0.7377024
38	0xbf016074	-0.505378
39	0xbeedc0d7	-0.46436188
40	0xbf51bb2c	-0.81926227
41	0xbf370605	-0.7149356
42	0xbf3d68d7	-0.739881
43	0xbf24aaeb	-0.643233
44	0xbf1c80b6	-0.611339
45	0xbede8540	-0.43461037
46	0xbf5f5fc9	-0.8725553
47	0xbf26ffbf	-0.6523399
48	0xbf096530	-0.53670025
49	0xbf1d3c5a	-0.61420214
50	0xbf0f7d3c	-0.5605047
51	0xbf22d123	-0.6360037
52	0xbf6043e4	-0.8760359
53	0xbf34b102	-0.7058259
54	0xbf3b794a	-0.7323195
55	0xbf04a3e9	-0.5181261
56	0xbf187969	-0.5956026
57	0xbf225b4b	-0.6342055
58	0xbf3768ff	-0.71644586
59	0xbeefc200	-0.46827698
60	0xbedcb8a7	-0.4310963
61	0xbef7af1a	-0.4837578
62	0xbf1aa7cb	-0.6041228
63	0xbf233988	-0.6375966

layer_convFeatExtractor.5.running_mean f4 [64]
0	0xc065c80f	-3.5903356
1	0xc047bba3	-3.1208274
2	0xbfa00445	-1.2501303
3	0xc02e3886	-2.7222
4	0xbfc62c6a	-1.5482304
5	0xc02480d1	-2.5703623
6	0xc08c4873	-4.383844
7	0xbf7b084f	-0.9805955
8	0xc0247640	-2.5697174
9	0xc002161c	-2.0325994
10	0xbe7d42a0	-0.24732447
11	0xc04a62a6	-3.162271
12	0xbfcc029d	-1.5938298
13	0xbfd82fca	-1.6889584
14	0x3fa74ee7	1.3070954
15	0xc016a550	-2.3538399
16	0xc08ed6ca	-4.4637194
17	0xc003158f	-2.0481908
18	0xc0b66960	-5.700363
19	0xc03d1f6a	-2.9550424
20	0xc05f0cd5	-3.4851582
21	0xbfe9ac4d	-1.8255707
22	0xc012abaf	-2.2917287
23	0xbff8e83a	-1.944587
24	0xbfcc3696	-1.5954158
25	0xc0836f75	-4.1073556
26	0xc0532337	-3.2990243
27	0x40021217	2.032354
28	0xbffc337c	-1.9703212
29	0xc04aed56	-3.1707358
30	0xc05ce01e	-3.451179
31	0x4006bb14	2.1051683
32	0xc09f2357	-4.973064
33	0xbf8a8c19	-1.0824004
34	0xbfdc54cc	-1.7213378
35	0xbff5d164	-1.9204526
36	0xc013c276	-2.308744
37	0xbf948b7e	-1.160507
38	0xbfeacfff	-1.8344725
39	0xbff782dc	-1.933681
40	0xbf9438b3	-1.1579803
41	0xbf28bff3	-0.6591789
42	0x401b0162	2.4219594
43	0xc0695100	-3.6455688
44	0xc07ee3cc	-3.9826536
45	0xbfdf4721	-1.7443582
46	0xbf34e40e	-0.70660484
47	0xc04f28f7	-3.2368753
48	0x3fe23d97	1.7675046
49	0xbff79078	-1.9340963
50	0xbf633df3	-0.887664
51	0xc0415b2b	-3.0211895
52	0xbfe6d4c3	-1.803368
53	0xbfde8a58	-1.7385969
54	0xbff1a426	-1.8878219
55	0x400b046e	2.1721454
56	0xc0529449	-3.2903006
57	0xc011f8f0	-2.280819
58	0xc0773701	-3.8627322
59	0xc0571702	-3.3607793
60	0xc03fca31	-2.9967158
61	0xbff84666	-1.9396484
62	0xc04305b8	-3.047224
63	0xc005fcfb	-2.0935657

layer_convFeatExtractor.5.running_var f4 [64]
0	0x40d58506	6.672488
1	0x40c1ac7c	6.052305
2	0x40c86b71	6.2631154
3	0x40a2f3b2	5.092248
4	0x4048ddf3	3.1385467
5	0x40d550a9	6.666096
6	0x4111d10a	9.113535
7	0x4030fa01	2.765259
8	0x40b76bf3	5.7319274
9	0x4090c484	4.5239887
10	0x4040117f	3.0010679
11	0x407d3dfc	3.9569082
12	0x40bb1d8f	5.847358
13	0x4099cfc5	4.8066125
14	0x40932913	4.598764
15	0x406fcd16	3.7468925
16	0x411a30f4	9.636951
17	0x40872804	4.2236347
18	0x4168159c	14.505276
19	0x40912573	4.5358214
20	0x40d037cb	6.5068107
21	0x4094bfda	4.6484194
22	0x40a6a4e4	5.2076283
23	0x4076a2f2	3.8536954
24	0x404bd8b9	3.1851027
25	0x40d2bc10	6.585457
26	0x40e23387	7.06879
27	0x402d0281	2.7032778
28	0x40b3ae7c	5.6150494
29	0x409a1193	4.8146453
30	0x41235714	10.208759
31	0x4080baba	4.022794
32	0x4131a3d2	11.102495
33	0x40af0c57	5.4702563
34	0x408f5056	4.4785566
35	0x40478136	3.1172614
36	0x406fedf8	3.7488995
37	0x406dcb98	3.7155514
38	0x409a758b	4.8268485
39	0x40adfb13	5.4368987
40	0x40671c6e	3.6111102
41	0x40700b3f	3.7506864
42	0x409bcea9	4.868977
43	0x40f52930	7.661278
44	0x40e6ff37	7.218654
45	0x400c80da	2.1953645
46	0x401c7fd9	2.4453032
47	0x405eebfd	3.4831536
48	0x405d3922	3.456612
49	0x404124d2	3.0178723
50	0x40720aff	3.7819211
51	0x40d215d1	6.565163
52	0x406dccd5	3.715627
53	0x408e97d2	4.4560328
54	0x40a43577	5.1315265
55	0x407091eb	3.7589061
56	0x40ab17e6	5.3466673
57	0x409017a6	4.502887
58	0x410691af	8.410567
59	0x40a15e7f	5.042785
60	0x40d835d7	6.7565722
61	0x40a58e02	5.173585
62	0x40d459c0	6.635956
63	0x4087e8c1	4.2471623

layer_convFeatExtractor.8.weight f4 [128, 64, 3, 3]
0	0x3e087489	0.13325705
1	0x3e1abe25	0.15111597
2	0x3ea16c22	0.3152781
3	0x3dd8340c	0.10556802
4	0x3dc18214	0.094486386
5	0x3e7ee85f	0.2489333
6	0x3d1b9169	0.03798047
7	0x3deaee0b	0.11471184
8	0x3e77ae46	0.24187574
9	0xbec38731	-0.3818908
10	0xbe8cc802	-0.27496344
11	0xbe8b4afc	-0.27205646
12	0x3d097eb8	0.033568114
13	0x3ccb61f7	0.024826987
14	0x3db10f2e	0.086454734
15	0xbe12764d	-0.1430294
16	0xbe2f9587	-0.17146884
17	0x3c166256	0.009178719
18	0xbcc5f28b	-0.024163505
19	0x3e2cc462	0.16871789
20	0x3cedcc5a	0.029028106
21	0x3d948182	0.07251264
22	0x3deb8c76	0.115014
23	0x3d710bd6	0.05884918
24	0x3d8904a8	0.06690341
25	0x3ce94821	0.028476777
26	0xbd154d87	-0.03645089
27	0x3e20cea8	0.15703833
28	0x3d12da5d	0.03585278
29	0x3e1d3961	0.1535392
30	0x3e1a7d34	0.15086824
31	0x3d35a4ea	0.044346727
32	0x3e76ad3b	0.2408952
33	0x3e0ed2e4	0.13947636
34	0x3daae389	0.0834418
35	0x3e7641c9	0.24048533
36	0xbe25e726	-0.16201457
37	0xbe5a8c4e	-0.21342584
38	0xbe60ba62	-0.219461
39	0x3de97234	0.11398736
40	0x3d04dad4	0.032435253
41	0x3d28d4ce	0.04121857
42	0x3de6e308	0.112737715
43	0x3d3376e8	0.04381457
44	0x3df23cd8	0.11828011
45	0xbda13635	-0.07871667
46	0x3dc664cb	0.096871935
47	0x3a840593	0.0010072462
48	0xbea74dc1	-0.3267651
49	0xbe56137b	-0.20905869
50	0xbdcbdbd0	-0.09954035
51	0xbd2ca544	-0.042149797
52	0x3d9bd889	0.0760966
53	0x3c6284e8	0.013825633
54	0x3db2453d	0.087046124
55	0xbac778fb	-0.001521855
56	0x3d876910	0.06611836
57	0x3e12dad4	0.14341289
58	0x3d8843cb	0.066535555
59	0x3d7027d0	0.05863172
60	0x3e2a24f8	0.16615665
61	0x3df4d6b5	0.119550146
62	0x3e0dc99b	0.13846438
63	0xbe35d2d4	-0.17756206
64	0xbe02ea76	-0.12784752
65	0xbe43e0e1	-0.19128753
66	0xbd52a547	-0.051427152
67	0x3cd185a9	0.02557643
68	0x3b8d8a93	0.004319498
69	0xbd9bb6d7	-0.07603233
70	0x3ca27b7c	0.019834273
71	0xbe2264ab	-0.15858714
72	0x3e185df2	0.14879587
73	0x3d804109	0.062624045
74	0x3e378d8b	0.17925088
75	0x3da93b44	0.08263257
76	0xbbc2821c	-0.0059359204
77	0x3e42b983	0.1901608
78	0x3dcd58ac	0.100266784
79	0x3bbd5aa7	0.005778629
80	0x3e3154f7	0.17317568
81	0x3e23678e	0.15957472
82	0x3df111c7	0.11770969
83	0x3e5df2ab	0.21674602
84	0x3d04b8ac	0.03240268
85	0x3ce650ef	0.028114764
86	0x3e212365	0.15736158
87	0x3cef5941	0.029217364
88	0x3d99d4c4	0.07511285
89	0x3e67c3a1	0.2263322
90	0x3cedc775	0.029025773
91	0xbdcc2362	-0.09967686
92	0xbd683fec	-0.056701586
93	0x3d40260d	0.046911288
94	0x3c7f0e3c	0.015567359
95	0x3d95a453	0.07306733
96	0x3e4301f8	0.1904372
97	0x3e1e82d3	0.15479593
98	0x3e58b9bb	0.211646
99	0xbe672807	-0.22573863
100	0xbe833c3b	-0.2563189
101	0xbd8a4167	-0.06750756
102	0xbea03bc8	-0.3129561
103	0xbe26fc7f	-0.16307257
104	0xbd2ec2b0	-0.042666137
105	0xbf154b77	-0.58318275
106	0xbed58ff0	-0.41711378
107	0xbe62eb2f	-0.22160028
108	0x3e01a47c	0.12660402
109	0x3e0e8cf5	0.13920958
110	0xbd5d55d6	-0.054036938
111	0x3e05b976	0.13059029
112	0x3e6bf51c	0.2304272
113	0x3e787633	0.2426384
114	0xbdb5d06f	-0.08877646
115	0x3be58db6	0.0070054187
116	0xbd089bb2	-0.033351608
117	0xbe382564	-0.17983013
118	0xbc973260	-0.018456638
119	0xbc4baea6	-0.012431776
120	0xbe1d44f9	-0.15358342
121	0xbdedcef8	-0.11611742
122	0xbd616d29	-0.055035744
123	0xbeb37242	-0.3504811
124	0xbea5c644	-0.32377827
125	0xbea680ca	-0.32520133
126	0xbdbbe246	-0.091740176
127	0x3cbe536f	0.023233144
128	0xbc28523f	-0.010273515
129	0x3c83e43e	0.016100045
130	0x3d66458d	0.056218673
131	0x3d74544c	0.059650704
132	0x3c9a69c1	0.018849256
133	0xbbca207d	-0.0061684237
134	0xbb867e62	-0.0041044215
135	0x3d10280c	0.03519444
136	0x3e346f03	0.17620473
137	0x3e45bb0f	0.19309638
138	0x3cc3c392	0.023896966
139	0x3dff3cc0	0.12462759
140	0x3de9b29e	0.11411022
141	0x3c8d6ddf	0.017264305
142	0x3cec0d85	0.02881504
143	0xbd5089c2	-0.050912626
144	0xbe17bef0	-0.1481893
145	0xbde15a87	-0.11003595
146	0xbd0b1713	-0.033957552
147	0xbde37785	-0.11106781
148	0xbdb03acc	-0.086049646
149	0xbbbe69c8	-0.00581095
150	0xbe17b986	-0.14816865
151	0xbdf4f724	-0.11961201
152	0xbd79ef86	-0.061019443
153	0xbc62135a	-0.013798559
154	0xbd1bb703	-0.03801633
155	0xbe566dab	-0.20940273
156	0xbe366286	-0.17811021
157	0xbe033548	-0.12813294
158	0xbe8c2d93	-0.2737852
159	0xbea8f5a1	-0.329999
160	0xbe165dfa	-0.14684287
161	0xbe8ed871	-0.27899507
162	0xbc4c5b4b	-0.012472938
163	0xbe466a67	-0.19376527
164	0xbe97de24	-0.29661667
165	0xbdf5d2ba	-0.120030835
166	0xbe4ff189	-0.20306982
167	0xbdf7af0d	-0.12093935
168	0x3cbe642d	0.023241127
169	0xbdd08e59	-0.10183401
170	0xbdd38aab	-0.10329183
171	0xbe9f46de	-0.31108755
172	0xbd75e9d8	-0.060037464
173	0xbe63544a	-0.22200122
174	0xbe86ba8e	-0.26314205
175	0xbe151f63	-0.14562754
176	0xbe82009a	-0.25391084
177	0xbe1273cd	-0.14301987
178	0xbcf54106	-0.029938232
179	0xbdd88337	-0.10571902
180	0x3d8b1e20	0.06792855
181	0x3d2c9169	0.04213086
182	0x3d06f8ff	0.032952305
183	0x3e1ffdeb	0.15624206
184	0x3da8b102	0.082368866
185	0x3deaeebb	0.114713155
186	0x3e6749bb	0.2258672
187	0x3e4fa170	0.20276427
188	0x3e45e1f7	0.1932448
189	0xbc7da38d	-0.015480888
190	0x3dcd7516	0.10032098
191	0x3e3816e5	0.17977484
192	0xbd81bb71	-0.0633458
193	0xbda09304	-0.07840541
194	0x3c91619a	0.017746735
195	0xbd5ee291	-0.05441529
196	0xbdf8ea72	-0.12154092
197	0xbdc1eefe	-0.09469412
198	0xbe57a4c2	-0.21058944
199	0xbe3d0b56	-0.18461356
200	0xbeb60feb	-0.3555902
201	0xbedc18ae	-0.4298758
202	0xbe9afc88	-0.3027079
203	0xbe896fb2	-0.2684303
204	0xbea81eab	-0.32835898
205	0xbe722b0e	-0.23649237
206	0xbe69249f	-0.22767876
207	0x3bf3e9dd	0.00744365
208	0x3c142a4d	0.009043288
209	0x3c9f3033	0.019432163
210	0xbbc601f2	-0.0060427124
211	0x3c8a4ee6	0.016883325
212	0x3c0a8c33	0.008456278
213	0xbdfecdf8	-0.12441629
214	0xbde6d332	-0.11270751
215	0xbd7722e1	-0.060335997
216	0x3e053087	0.13006793
217	0x3dd06ecb	0.10177382
218	0x3dc15bfd	0.094413735
219	0x3e850065	0.25976864
220	0x3e3cb9f2	0.18430308
221	0x3e643f49	0.22289766
222	0x3eaf8173	0.3427845
223	0x3eafd3e9	0.34341362
224	0x3e945f2e	0.28978866
225	0x3d12f1c9	0.035875116
226	0x3d6ef2ff	0.058337208
227	0x3d4c585a	0.049888946
228	0x3e2771c3	0.1635199
229	0x3ccad7df	0.024761138
230	0x3ddcb0fb	0.10775944
231	0x3db81364	0.089880735
232	0x3d144b67	0.03620472
233	0x3e431467	0.19050752
234	0xbad944be	-0.0016576273
235	0x3cfb315f	0.03066319
236	0xbd98229c	-0.07428476
237	0x3defd764	0.117110044
238	0x3d9c8afb	0.07643696
239	0xbdbc9df0	-0.09209812
240	0xbd6a3569	-0.057179842
241	0xbce20730	-0.027591318
242	0xbe3d16cb	-0.18465726
243	0xbc2c459a	-0.010514641
244	0xbd85e4fe	-0.065378174
245	0xbd32fbec	-0.043697283
246	0x3cd76f58	0.02629821
247	0xbc14bb08	-0.009077795
248	0xbd02fef3	-0.03198142
249	0x3d9467fb	0.07246395
250	0x3d6a5812	0.057212897
251	0x3d927710	0.071516156
252	0xbd6a4d1a	-0.057202436
253	0x3cbebedf	0.023284374
254	0x3cbd2880	0.023090601
255	0x3e07b0ae	0.13250992

layer_convFeatExtractor.8.bias f4 [128]
0	0x3c037c0d	0.0080251815
1	0xbc4c9c56	-0.012488445
2	0xbb751877	-0.0037398615
3	0xb94a5483	-0.00019295704
4	0x3c787189	0.015163788
5	0x3ba465c3	0.0050170138
6	0xbb5e92fc	-0.0033962121
7	0xbd183daa	-0.037168182
8	0xbdab4866	-0.08363418
9	0x3c439efb	0.011939759
10	0x3d450e32	0.04810924
11	0x3cd0dd11	0.025496038
12	0x3d2629a1	0.040567044
13	0x3d33756e	0.04381316
14	0xbd169702	-0.036765106
15	0x3c06356f	0.0081914505
16	0x3d1f0ed4	0.0388325
17	0xbd072082	-0.032989986
18	0x3cbdf700	0.023189068
19	0x3d47f318	0.048815817
20	0xbc310d36	-0.010806372
21	0xbaf7fef4	-0.0018920586
22	0x3c1a2757	0.009408793
23	0xbc173e08	-0.009231098
24	0xbc5d4aa3	-0.013506564
25	0xbd1eb36f	-0.03874534
26	0x3c17a3b9	0.009255343
27	0xbd259edd	-0.040434707
28	0xbc1ef6e9	-0.009702423
29	0x3d2a2cc5	0.0415466
30	0x3b2a95a4	0.0026029134
31	0x3d1765a7	0.036962178
32	0xbc858db5	-0.016302923
33	0xbd0107e2	-0.03150166
34	0x3b838a84	0.004014315
35	0x3c01a0a3	0.007911834
36	0x3c5fd04e	0.013660504
37	0x3cb85038	0.022499189
38	0x3bd69d49	0.0065495116
39	0x3cc64758	0.024203941
40	0xbd0030d0	-0.03129655
41	0xbc7320b2	-0.014839338
42	0x3cbc73d9	0.02300446
43	0x3ca3e243	0.020005351
44	0xbafb0b08	-0.0019153068
45	0xbb5b517f	-0.0033465324
46	0x3cc3a794	0.023883618
47	0xbc398bde	-0.011324851
48	0x3b92787c	0.0044699293
49	0x3c47e5b0	0.012200758
50	0x3b369bfc	0.002786397
51	0x3d226c68	0.039654166
52	0xbbc05b67	-0.005870271
53	0x3d45d50c	0.04829888
54	0x3ce22504	0.027605541
55	0x3bb8093d	0.0056163357
56	0x3d25bb45	0.040461797
57	0xbcc23b74	-0.02370999
58	0x3cbfacb9	0.02339779
59	0x3cc738c8	0.024319068
60	0xbd6730e1	-0.0564431
61	0xbcd4af6e	-0.025962558
62	0x3d93b2ff	0.07211875
63	0xbd2433a4	-0.04008831
64	0xbd1cd5af	-0.038289722
65	0xbd125777	-0.035727944
66	0xbba85980	-0.0051376224
67	0xbc43e4f9	-0.011956447
68	0xbd2139c7	-0.03936174
69	0x3ce3bd20	0.027800143
70	0xbcb03de4	-0.021513887
71	0x3aafe026	0.0013418242
72	0x3c8a23b9	0.016862737
73	0xbc4c1a95	-0.0124575095
74	0x3cf57f57	0.029967947
75	0xbd0e2b47	-0.03470924
76	0xbd424043	-0.047424566
77	0x3cccb4d1	0.024988564
78	0x3c245e25	0.010032211
79	0x3ce5b745	0.028041491
80	0xbb3bfe0d	-0.0028685362
81	0x3d613574	0.054982617
82	0xbcb1d190	-0.021706372
83	0xbbe0856b	-0.006851842
84	0xbd2623aa	-0.040561356
85	0xbc7396a2	-0.014867457
86	0xbca560ae	-0.020187702
87	0xbc1c9c75	-0.009558787
88	0x3b02f728	0.0019983742
89	0xbd032f2c	-0.03202741
90	0xbc1a48de	-0.009416787
91	0x3bd6f979	0.006560501
92	0x3c36b8d7	0.011152468
93	0xbc9d076c	-0.019168578
94	0x3c113f02	0.00886512
95	0xbcd026b0	-0.025409073
96	0x3c14c933	0.009081173
97	0xbca43c52	-0.020048294
98	0x3cc4dff3	0.024032569
99	0x3ca74bee	0.020421948
100	0x3cf55944	0.029949792
101	0x3c105489	0.008809217
102	0xbb2220ee	-0.0024738866
103	0xbd0a7221	-0.033800248
104	0xbbe27c83	-0.0069118156
105	0x3cce4067	0.025177194
106	0x3b9a03a0	0.004700139
107	0x3d06e12a	0.032929577
108	0x3c15155d	0.009099332
109	0x3c9d6f29	0.019218044
110	0xbba1760f	-0.0049274038
111	0xbc94fe64	-0.01818771
112	0xbc096066	-0.0083848
113	0xbd1e096c	-0.038583204
114	0xbcd22ef4	-0.025657155
115	0x3c55a920	0.013040811
116	0x3ccc2d8b	0.02492406
117	0xbcf1ca4f	-0.029515414
118	0xbd333726	-0.043753766
119	0x3b1979da	0.0023418576
120	0x3b39d219	0.0028353988
121	0x3c82a5ec	0.015948258
122	0x3ca547f0	0.020175904
123	0xbb9895dd	-0.004656537
124	0x3bc88fcf	0.006120659
125	0x3ccc4c49	0.02493872
126	0x3d053dc1	0.032529596
127	0x3c5bb9ac	0.013410967

layer_convFeatExtractor.9.weight f4 [128]
0	0x3f4f5691	0.80991465
1	0x3f415336	0.75517595
2	0x3f50db26	0.81584394
3	0x3f4b26e1	0.793562
4	0x3f4cc900	0.799942
5	0x3f49156c	0.7854831
6	0x3f4eb6ea	0.80747855
7	0x3f4b0885	0.79309875
8	0x3f3c91f7	0.73660225
9	0x3f4ce177	0.8003153
10	0x3f453fd8	0.7705054
11	0x3f4d39c5	0.80166274
12	0x3f49854c	0.7871902
13	0x3f4bb8bd	0.79578763
14	0x3f46514e	0.7746781
15	0x3f46198e	0.77382743
16	0x3f526b50	0.82194996
17	0x3f542c60	0.8288021
18	0x3f511bf6	0.8168329
19	0x3f48c2b5	0.784221
20	0x3f56b5c8	0.83871126
21	0x3f479ed4	0.7797673
22	0x3f4281f5	0.7597955
23	0x3f4997fa	0.7874752
24	0x3f611b4a	0.87932265
25	0x3f40ef3a	0.7536503
26	0x3f4a463e	0.7901343
27	0x3f4aa940	0.79164505
28	0x3f5e7b59	0.86906964
29	0x3f42bed4	0.7607243
30	0x3f482062	0.7817441
31	0x3f49a0bd	0.7876089
32	0x3f5830fe	0.84449756
33	0x3f5e3f99	0.8681579
34	0x3f4b70e5	0.7946914
35	0x3f39d96e	0.72597396
36	0x3f4f635c	0.81010985
37	0x3f4834ce	0.78205574
38	0x3f3f9897	0.7484221
39	0x3f47721d	0.779085
40	0x3f567fde	0.8378886
41	0x3f43e6ff	0.7652435
42	0x3f4cf7eb	0.8006579
43	0x3f414ed7	0.75510925
44	0x3f309b3f	0.68986887
45	0x3f4f1935	0.8089784
46	0x3f524f69	0.8215242
47	0x3f5064e3	0.8140394
48	0x3f49e115	0.7885907
49	0x3f494e48	0.7863507
50	0x3f4ad5e7	0.7923264
51	0x3f419254	0.75613904
52	0x3f5a6bc0	0.85320663
53	0x3f41ef1a	0.75755465
54	0x3f3b4c7a	0.7316357
55	0x3f4a3997	0.78994125
56	0x3f484f22	0.7824575
57	0x3f46acaf	0.77607244
58	0x3f52d73c	0.8235967
59	0x3f4cf7f4	0.80065846
60	0x3f52992c	0.8226497
61	0x3f4844dc	0.7823007
62	0x3f5306c5	0.82432204
63	0x3f5c4275	0.86038905
64	0x3f34735e	0.70488536
65	0x3f48a35f	0.78374285
66	0x3f46782f	0.77527136
67	0x3f3ebeef	0.7451009
68	0x3f45ec8d	0.7731407
69	0x3f3a0d9f	0.72677034
70	0x3f49cf58	0.78832006
71	0x3f447399	0.7673889
72	0x3f4f0446	0.80865896
73	0x3f3a0809	0.7266851
74	0x3f48d702	0.78453076
75	0x3f4d9249	0.8030134
76	0x3f4d00d5	0.80079395
77	0x3f646ba4	0.89226747
78	0x3f68ea37	0.90982383
79	0x3f4bf260	0.7966671
80	0x3f48d834	0.784549
81	0x3f5243fb	0.8213498
82	0x3f464b96	0.77459085
83	0x3f41c78e	0.7569512
84	0x3f368ff9	0.71313435
85	0x3f4749ea	0.7784716
86	0x3f562b9a	0.8366028
87	0x3f5fb70f	0.873887
88	0x3f603515	0.87580997
89	0x3f3e823e	0.74417484
90	0x3f557011	0.83374125
91	0x3f3ef3a9	0.74590546
92	0x3f4eed15	0.8083051
93	0x3f55fd51	0.83589655
94	0x3f4b3a26	0.793856
95	0x3f4772d6	0.779096
96	0x3f41d0ce	0.75709236
97	0x3f404b7d	0.75115186
98	0x3f46129e	0.7737216
99	0x3f467602	0.77523816
100	0x3f475053	0.7785694
101	0x3f45cce9	0.77265793
102	0x3f4bfde1	0.79684263
103	0x3f452505	0.7700961
104	0x3f41e212	0.7573558
105	0x3f49222c	0.7856777
106	0x3f4f7384	0.8103564
107	0x3f5ebc91	0.8700648
108	0x3f4eaec9	0.8073545
109	0x3f4a29e7	0.7897019
110	0x3f65bae3	0.8973829
111	0x3f5a7ce5	0.85346824
112	0x3f4691e9	0.7756639
113	0x3f4966b4	0.7867234
114	0x3f4b3dd1	0.793912
115	0x3f5fcfa9	0.8742624
116	0x3f4cc7fb	0.79992646
117	0x3f47387d	0.7782057
118	0x3f43b136	0.7644228
119	0x3f4967e5	0.78674155
120	0x3f584d86	0.8449329
121	0x3f4f971e	0.8108996
122	0x3f4dbb48	0.80363894
123	0x3f452074	0.77002645
124	0x3f4ca9e9	0.7994676
125	0x3f48d68c	0.7845237
126	0x3f3a0c66	0.7267517
127	0x3f412062	0.7544004

layer_convFeatExtractor.9.bias f4 [128]
0	0xbf6e6336	-0.93120134
1	0xbf0c915c	-0.549093
2	0xbf781d3d	-0.96919614
3	0xbf32aa13	-0.6979076
4	0xbf26ffc7	-0.65234035
5	0xbf23b956	-0.63954675
6	0xbf47f064	-0.7810118
7	0xbf478e57	-0.7795157
8	0xbf046417	-0.51715225
9	0xbf277032	-0.6540557
10	0xbf15c044	-0.584965
11	0xbf43aa81	-0.76432043
12	0xbf2558c2	-0.6458856
13	0xbf0cf824	-0.5506613
14	0xbf1ca957	-0.6119589
15	0xbf28b6d1	-0.65903956
16	0xbf1477e7	-0.57995456
17	0xbf5528bf	-0.832653
18	0xbf0e1680	-0.5550308
19	0xbf119af5	-0.5687707
20	0xbf3c6347	-0.73588985
21	0xbf1af1a2	-0.6052495
22	0xbef94371	-0.48684266
23	0xbefcc0a9	-0.49365738
24	0xbf58f7ad	-0.84752923
25	0xbef683bc	-0.4814738
26	0xbf114117	-0.56739944
27	0xbf2acc92	-0.667184
28	0xbf6a2bc6	-0.9147304
29	0xbf1b5198	-0.6067138
30	0xbf193e2f	-0.5986051
31	0xbf4a88f4	-0.79115224
32	0xbf19f4fd	-0.6013945
33	0xbf4c8e16	-0.79904306
34	0xbf147fb9	-0.5800739
35	0xbf01d203	-0.5071108
36	0xbf222039	-0.6333042
37	0xbf304bf3	-0.6886589
38	0xbf097116	-0.5368818
39	0xbf280dda	-0.65646136
40	0xbf47e551	-0.78084284
41	0xbf100313	-0.5625469
42	0xbf26037c	-0.64849067
43	0xbf44dde7	-0.76901096
44	0xbeffa991	-0.49934056
45	0xbf377823	-0.7166769
46	0xbf5376a2	-0.82602894
47	0xbf0e8304	-0.55668664
48	0xbf430aed	-0.76188546
49	0xbf023774	-0.50865865
50	0xbf0f0952	-0.55873597
51	0xbf1cc1b2	-0.61233056
52	0xbf6d4806	-0.92688024
53	0xbee9de20	-0.4567728
54	0xbf1eccc5	-0.62031204
55	0xbf1b5653	-0.60678595
56	0xbf375318	-0.71611166
57	0xbf16aed7	-0.58860534
58	0xbf2b2433	-0.6685211
59	0xbf254e37	-0.6457247
60	0xbf2160e6	-0.6303848
61	0xbf04aae8	-0.5182328
62	0xbf285f7b	-0.6577069
63	0xbf69ec28	-0.9137597
64	0xbf039f45	-0.514149
65	0xbf2c6492	-0.6734096
66	0xbf0a2df1	-0.5397635
67	0xbf089fb8	-0.5336871
68	0xbf0a7eeb	-0.5409991
69	0xbed8464e	-0.42241138
70	0xbf3b7517	-0.7322554
71	0xbed1f8b2	-0.41010052
72	0xbf36813b	-0.7129094
73	0xbf1a92ac	-0.60380054
74	0xbef991ba	-0.48743993
75	0xbf233289	-0.63748986
76	0xbf24d6e2	-0.64390385
77	0xbf54102e	-0.8283719
78	0xbf3b7340	-0.7322273
79	0xbf18e4d5	-0.5972417
80	0xbf13853d	-0.5762518
81	0xbf2c7205	-0.6736148
82	0xbf100176	-0.5625223
83	0xbf1634d8	-0.58674383
84	0xbf3327b0	-0.69982433
85	0xbecc77f5	-0.3993527
86	0xbf1a1176	-0.60182893
87	0xbf5c854a	-0.8614088
88	0xbf56f350	-0.83965015
89	0xbf013887	-0.5047688
90	0xbf600a7c	-0.87516
91	0xbf1cd3e9	-0.6126085
92	0xbf3878ea	-0.720595
93	0xbf49bd7b	-0.7880475
94	0xbf1900ad	-0.59766656
95	0xbf1a63d4	-0.60308576
96	0xbeea0e4c	-0.45714033
97	0xbf3d7d1c	-0.74019027
98	0xbf16586f	-0.5872869
99	0xbf225c3d	-0.63421994
100	0xbf23de85	-0.6401141
101	0xbf19d16b	-0.6008517
102	0xbf2be9c7	-0.6715359
103	0xbf0799de	-0.5296916
104	0xbeffaab5	-0.49934927
105	0xbf22432b	-0.6338374
106	0xbf1e96b7	-0.6194872
107	0xbf78f393	-0.97246665
108	0xbf24067c	-0.64072394
109	0xbf054b62	-0.5206815
110	0xbf551041	-0.83227926
111	0xbf18459c	-0.59481215
112	0xbf27dc96	-0.6557096
113	0xbf2cfab4	-0.6757004
114	0xbf15b3c9	-0.58477455
115	0xbf586db0	-0.8454237
116	0xbf3fc69e	-0.7491244
117	0xbf399bb8	-0.7250323
118	0xbf0cb095	-0.5495694
119	0xbf22b109	-0.63551384
120	0xbf6e7e02	-0.9316102
121	0xbf4603a7	-0.77349323
122	0xbf386420	-0.7202778
123	0xbf1e0ca9	-0.6173807
124	0xbf2b36c1	-0.6688042
125	0xbf210cf6	-0.629104
126	0xbf1c7919	-0.6112228
127	0xbf08b05d	-0.5339411

layer_convFeatExtractor.9.running_mean f4 [128]
0	0xbf9df90b	-1.2341627
1	0xbf13cc7a	-0.5773388
2	0xbf4362d1	-0.76322657
3	0x3f5efec3	0.87107486
4	0xbf9cf31c	-1.2261691
5	0x3f8f3edd	1.1191059
6	0xbf5a51ed	-0.8528126
7	0xbeb9cf4a	-0.36290962
8	0xbf507bd6	-0.8143896
9	0xbfc411ac	-1.5317893
10	0xbfbd4709	-1.4787303
11	0x3e8af045	0.27136436
12	0xbc84d0cb	-0.016212841
13	0xbf07e46d	-0.53082925
14	0x3ad50f4f	0.0016255173
15	0x3f3edca6	0.7455543
16	0xbeb610ce	-0.35559696
17	0xbfc8ce13	-1.5687889
18	0x3e3aeb9d	0.18253942
19	0xbebb2945	-0.36554924
20	0x3f202ed5	0.6257146
21	0xbe296d10	-0.1654551
22	0x3aa07d76	0.0012244422
23	0x3f705bb8	0.9388995
24	0xbf9822cf	-1.1885623
25	0xbf85be2a	-1.0448658
26	0x3fcd545e	1.6041372
27	0xbfece85c	-1.850841
28	0xbfaa9d10	-1.3329182
29	0xbfe2a6f0	-1.7707195
30	0xbf57ae4c	-0.8425033
31	0x3dccbf70	0.09997451
32	0x3f3af960	0.73036766
33	0xbf1f10e2	-0.62135136
34	0x3edf2656	0.43583935
35	0xc00b0e55	-2.1727498
36	0xbf1b377b	-0.6063153
37	0xc07704d6	-3.8596702
38	0x3f9bf783	1.218491
39	0x3fc1a14a	1.5127347
40	0xbfb5f75d	-1.4216114
41	0xbfd5f135	-1.6714236
42	0xbf1dd36f	-0.6165075
43	0x3efed207	0.49769613
44	0xc0321812	-2.7827191
45	0x3f0a6a2f	0.54068273
46	0x3f21dc98	0.63227224
47	0xbf97d0a6	-1.186055
48	0x3f4644e6	0.7744888
49	0xbf80e70e	-1.0070512
50	0xbf5e6deb	-0.8688647
51	0x3f38ea5b	0.722326
52	0xbf910253	-1.1328834
53	0xbf632517	-0.8872847
54	0xbfc8bef8	-1.5683279
55	0xbfdf7e8e	-1.7460496
56	0xc03b0b57	-2.9225671
57	0x3e16f32d	0.14741202
58	0xbf1d0884	-0.6134112
59	0xbfd09e9d	-1.6298405
60	0xbfacb451	-1.3492528
61	0x3f9253ca	1.143182
62	0xbff623f8	-1.9229727
63	0xbfe44ff8	-1.7836905
64	0xbfab8ef5	-1.3403002
65	0x3f815578	1.0104208
66	0xbf151bcd	-0.58245546
67	0xbf2f9e15	-0.6860059
68	0xbfc31ec3	-1.5243763
69	0xc0698b86	-3.6491408
70	0xbef91aeb	-0.4865335
71	0xc0405c04	-3.0056162
72	0xbf2c9c5b	-0.6742608
73	0xbff171c4	-1.8862844
74	0xbef12389	-0.47097424
75	0x3e0d1e10	0.13780999
76	0xbf86d705	-1.0534369
77	0xc06bd038	-3.6845837
78	0xbf701d90	-0.9379511
79	0xbb0d25d8	-0.002153745
80	0x3ebf11e6	0.37318343
81	0xbe4c2a79	-0.19938077
82	0x3fcf7ad1	1.6209356
83	0xbf5c39fb	-0.8602597
84	0x3fb7ccb0	1.4359341
85	0x3e81689b	0.2527512
86	0xc02f325b	-2.7374485
87	0xbfd83365	-1.6890684
88	0xc064de76	-3.576078
89	0xbfcc2200	-1.5947876
90	0x3f22a691	0.6353541
91	0x3ff9817d	1.9492642
92	0x3f14dc74	0.58148885
93	0xbfec68fa	-1.8469536
94	0xbf3cf76f	-0.73815054
95	0x3e02c9ac	0.12772244
96	0xbf14d07e	-0.58130634
97	0xc0251af9	-2.5797713
98	0x3ee15db0	0.4401679
99	0x3f3d612f	0.73976415
100	0x3f23d134	0.63991094
101	0xbf585229	-0.84500366
102	0xbee479dc	-0.4462422
103	0xbe7d2674	-0.247217
104	0x3fac0cce	1.3441408
105	0xc00f04c8	-2.2346668
106	0xbdfbdd9b	-0.12298127
107	0xc00c2468	-2.189722
108	0xbed03ddf	-0.40672204
109	0x3edfc360	0.43703747
110	0xc0203edc	-2.5038366
111	0xbf3d51ec	-0.7395313
112	0x3f92c692	1.1466849
113	0xbf9566c3	-1.1671985
114	0xc00db9ff	-2.2144773
115	0xc0605eaf	-3.505779
116	0xbfd809f8	-1.6878042
117	0x3ed8327e	0.42226022
118	0xbd38971d	-0.045065988
119	0xbfac15d6	-1.3444164
120	0xbfc909f6	-1.5706165
121	0x3ec8312d	0.39100018
122	0xbfba324e	-1.4546602
123	0xbff2668f	-1.8937548
124	0xc007e8f9	-2.1235945
125	0x3de8b9e0	0.11363578
126	0xbef0dc2a	-0.47042972
127	0xc05c83fa	-3.4455552

layer_convFeatExtractor.9.running_var f4 [128]
0	0x404a546d	3.161403
1	0x4008f1ba	2.1397538
2	0x402f39aa	2.7378945
3	0x3ffc30a5	1.9702345
4	0x402dabc4	2.7136087
5	0x3ff613c7	1.9224786
6	0x404221b1	3.0333064
7	0x40277abd	2.6168664
8	0x4052c558	3.293295
9	0x4019c49b	2.4026248
10	0x40499f28	3.1503391
11	0x4003b139	2.0576918
12	0x40346c08	2.8190937
13	0x4042da8f	3.0445898
14	0x404ece52	3.2313428
15	0x3ffaf8cb	1.9607176
16	0x401a5243	2.4112709
17	0x402da975	2.7134678
18	0x404ec17c	3.2305593
19	0x40861460	4.189987
20	0x409aefa7	4.8417544
21	0x3ff920c6	1.9463127
22	0x4036cd0b	2.8562648
23	0x403aa432	2.9162717
24	0x4016b6b8	2.3549023
25	0x404a0b83	3.1569526
26	0x40091260	2.1417465
27	0x401c2e19	2.4403136
28	0x403402ef	2.812679
29	0x4054d775	3.3256505
30	0x40567963	3.3511589
31	0x40119390	2.2746315
32	0x4052dba1	3.294655
33	0x40563a0f	3.3472936
34	0x4047eed6	3.1239524
35	0x40a04cd9	5.009381
36	0x4016a14b	2.3535945
37	0x405f5158	3.4893398
38	0x4039bf54	2.9023027
39	0x404fe511	3.248356
40	0x40858a83	4.173158
41	0x405abcdb	3.4177768
42	0x404d189f	3.2046278
43	0x405efa57	3.4840295
44	0x40976950	4.7316055
45	0x3fec13e5	1.8443571
46	0x3ffa798e	1.9568346
47	0x40afb172	5.490411
48	0x401db7c9	2.4643424
49	0x40a926f0	5.286003
50	0x403b9e48	2.9315357
51	0x4001aef2	2.0263028
52	0x40583999	3.3785155
53	0x405080b2	3.257855
54	0x405f5ffd	3.4902337
55	0x405ddfd7	3.466787
56	0x403808bf	2.8755338
57	0x3ffae0e5	1.9599882
58	0x4040c2ac	3.0118818
59	0x400dc523	2.2151573
60	0x403538c0	2.8315887
61	0x405bf820	3.4370193
62	0x4032bc55	2.7927449
63	0x403e0a26	2.9693694
64	0x4084f1e3	4.154527
65	0x4030df11	2.763615
66	0x403a4655	2.9105427
67	0x40abec54	5.3725986
68	0x40377017	2.8662164
69	0x40984dbb	4.7594886
70	0x4044961d	3.0716622
71	0x4100817c	8.031612
72	0x4025cedc	2.5907507
73	0x404745a6	3.113626
74	0x4099d189	4.806828
75	0x4021f2af	2.5304372
76	0x403208ca	2.7817864
77	0x406fdd3f	3.7478788
78	0x40881248	4.2522316
79	0x403fdf65	2.99801
80	0x4011b9d4	2.276967
81	0x4022fadf	2.546562
82	0x404c302c	3.1904402
83	0x4054dbbb	3.3259113
84	0x40320aba	2.7819047
85	0x40960de1	4.689194
86	0x409cfac5	4.9056115
87	0x40586142	3.3809361
88	0x40799405	3.8996594
89	0x4037397d	2.8628838
90	0x4007f793	2.1244857
91	0x4009e861	2.1548083
92	0x3ff995aa	1.9498799
93	0x405435d4	3.3157854
94	0x4024dfdd	2.5761635
95	0x402ea797	2.7289789
96	0x402379d3	2.5543106
97	0x40744b42	3.8170934
98	0x403e32da	2.9718537
99	0x400e8a08	2.2271748
100	0x3ff03cc2	1.8768542
101	0x4064a5ae	3.5726123
102	0x40199761	2.3998644
103	0x40437512	3.0540204
104	0x40318750	2.7738838
105	0x4025efdb	2.5927646
106	0x401874e1	2.3821337
107	0x402e6194	2.7247057
108	0x401a7308	2.413271
109	0x4006b8af	2.1050222
110	0x4036c939	2.8560317
111	0x4018afb5	2.3857243
112	0x3fff02ed	1.9922768
113	0x4018e804	2.389161
114	0x40691444	3.641862
115	0x404e8d7f	3.2273862
116	0x4048954d	3.1341126
117	0x3ff82568	1.9386415
118	0x401e9ca8	2.4783115
119	0x40416208	3.0216084
120	0x403851c6	2.879991
121	0x4008158d	2.1263154
122	0x401a903e	2.4150538
123	0x40811503	4.033815
124	0x402a203d	2.6582177
125	0x3fe9aa7e	1.8255155
126	0x40392f07	2.8934953
127	0x40ae8621	5.453873
